{"format": "layers-model", "generatedBy": "keras v2.3.0-tf", "convertedBy": "TensorFlow.js Converter v1.7.4r1", "modelTopology": {"keras_version": "2.3.0-tf", "backend": "tensorflow", "model_config": {"class_name": "Sequential", "config": {"name": "sequential_4", "layers": [{"class_name": "Dense", "config": {"name": "dense_12", "trainable": true, "batch_input_shape": [null, 4], "dtype": "float32", "units": 24, "activation": "relu", "use_bias": true, "kernel_initializer": {"class_name": "GlorotUniform", "config": {"seed": null}}, "bias_initializer": {"class_name": "Zeros", "config": {}}, "kernel_regularizer": null, "bias_regularizer": null, "activity_regularizer": null, "kernel_constraint": null, "bias_constraint": null}}, {"class_name": "Dense", "config": {"name": "dense_13", "trainable": true, "dtype": "float32", "units": 24, "activation": "relu", "use_bias": true, "kernel_initializer": {"class_name": "GlorotUniform", "config": {"seed": null}}, "bias_initializer": {"class_name": "Zeros", "config": {}}, "kernel_regularizer": null, "bias_regularizer": null, "activity_regularizer": null, "kernel_constraint": null, "bias_constraint": null}}, {"class_name": "Dense", "config": {"name": "dense_14", "trainable": true, "dtype": "float32", "units": 1, "activation": "linear", "use_bias": true, "kernel_initializer": {"class_name": "GlorotUniform", "config": {"seed": null}}, "bias_initializer": {"class_name": "Zeros", "config": {}}, "kernel_regularizer": null, "bias_regularizer": null, "activity_regularizer": null, "kernel_constraint": null, "bias_constraint": null}}], "build_input_shape": [null, 4]}}, "training_config": {"loss": {"class_name": "MeanSquaredError", "config": {"reduction": "auto", "name": "mean_squared_error"}}, "metrics": [{"class_name": "MeanAbsoluteError", "config": {"name": "mean_absolute_error", "dtype": "float32"}}, {"class_name": "Accuracy", "config": {"name": "accuracy", "dtype": "float32"}}, {"class_name": "MeanSquaredError", "config": {"name": "mean_squared_error", "dtype": "float32"}}], "weighted_metrics": null, "loss_weights": null, "sample_weight_mode": null, "optimizer_config": {"class_name": "RMSprop", "config": {"name": "RMSprop", "learning_rate": 0.001, "decay": 0.0, "rho": 0.9, "momentum": 0.0, "epsilon": 1e-07, "centered": false}}}}, "weightsManifest": [{"paths": ["group1-shard1of1.bin"], "weights": [{"name": "dense_12/kernel", "shape": [4, 24], "dtype": "float32"}, {"name": "dense_12/bias", "shape": [24], "dtype": "float32"}, {"name": "dense_13/kernel", "shape": [24, 24], "dtype": "float32"}, {"name": "dense_13/bias", "shape": [24], "dtype": "float32"}, {"name": "dense_14/kernel", "shape": [24, 1], "dtype": "float32"}, {"name": "dense_14/bias", "shape": [1], "dtype": "float32"}]}]}